…
719-6a8a-4ce6-ea0d-4f92833a977c"},"children":[{"type":"code","lang":"python","executable":true,"value":"summary(model, (3, 244, 244))","identifier":"icub83khyh0_-code","enumerator":"29","html_id":"icub83khyh0-code","key":"I6R00QaGJ6"},{"type":"outputs","id":"OTxjl06rroA5dpi03v9tP","children":[{"type":"output","jupyter_data":{"output_type":"stream","name":"stdout","text":"----------------------------------------------------------------\n        Layer (type)               Output Shape         Param #\n================================================================\n            Conv2d-1         [-1, 64, 244, 244]           1,792\n              ReLU-2         [-1, 64, 244, 244]               0\n            Conv2d-3         [-1, 64, 244, 244]          36,928\n              ReLU-4         [-1, 64, 244, 244]               0\n         MaxPool2d-5         [-1, 64, 122, 122]               0\n            Conv2d-6        [-1, 128, 122, 122]          73,856\n              ReLU-7        [-1, 128, 122, 122]               0\n            Conv2d-8        [-1, 128, 122, 122]         147,584\n              ReLU-9        [-1, 128, 122, 122]               0\n        MaxPool2d-10          [-1, 128, 61, 61]               0\n           Conv2d-11          [-1, 256, 61, 61]         295,168\n             ReLU-12          [-1, 256, 61, 61]               0\n           Conv2d-13          [-1, 256, 61, 61]         590,080\n             ReLU-14          [-1, 256, 61, 61]               0\n           Conv2d-15          [-1, 256, 61, 61]         590,080\n             ReLU-16          [-1, 256, 61, 61]               0\n        MaxPool2d-17          [-1, 256, 30, 30]               0\n           Conv2d-18          [-1, 512, 30, 30]       1,180,160\n             ReLU-19          [-1, 512, 30, 30]               0\n           Conv2d-20          [-1, 512, 30, 30]       2,359,808\n             ReLU-21          [-1, 512, 30, 30]               0\n           Conv2d-22          [-1, 512, 30, 30]       2,359,808\n             ReLU-23          [-1, 512, 30, 30]               0\n        MaxPool2d-24          [-1, 512, 15, 15]               0\n           Conv2d-25          [-1, 512, 15, 15]       2,359,808\n             ReLU-26          [-1, 512, 15, 15]               0\n           Conv2d-27          [-1, 512, 15, 15]       2,359,808\n             ReLU-28          [-1, 512, 15, 15]               0\n           Conv2d-29          [-1, 512, 15, 15]       2,359,808\n             ReLU-30          [-1, 512, 15, 15]               0\n        MaxPool2d-31            [-1, 512, 7, 7]               0\nAdaptiveAvgPool2d-32            [-1, 512, 7, 7]               0\n           Linear-33                 [-1, 4096]     102,764,544\n             ReLU-34                 [-1, 4096]               0\n          Dropout-35                 [-1, 4096]               0\n           Linear-36                 [-1, 4096]      16,781,312\n             ReLU-37                 [-1, 4096]               0\n          Dropout-38                 [-1, 4096]               0\n           Linear-39                    [-1, 2]           8,194\n================================================================\nTotal params: 134,268,738\nTrainable params: 134,268,738\nNon-trainable params: 0\n----------------------------------------------------------------\nInput size (MB): 0.68\nForward/backward pass size (MB): 258.50\nParams size (MB): 512.19\nEstimated Total Size (MB): 771.38\n----------------------------------------------------------
…
